fashionMNIST_CNN_model.onnx (onnx, 413717 bytes, 8 tensors)

conv1.weight f4 [8, 1, 3, 3]
00000000: 421b ad3d 50b3 d53d 3391 47be 1cc7 30bf
00000010: 6dd2 183f 9404 d03d 9ce5 33bf ab89 813e
00000020: d371 f33e 229e 4bbe 62d8 d73d f0bb ae3e
00000030: 649a ff3e 587c 9b3d bc24 2ebe 2f93 343f
00000040: 7274 9dbe a54d 7ebf 98b4 c3be 9faf 7ebf
00000050: cad6 b63e f4cc 59bc 9b48 86be e20f ae3d
00000060: 393a f53e f3df e2bd 920d 293f 1afd 3fbd
00000070: 1da4 f2bb 8719 bc3d 8a4a a7be 6159 31bf
00000080: 01ce cebe 11f7 d53e 2067 82be 8d52 d1bd
00000090: f207 113f 7672 523f 6b62 a33e 76ba 523d
000000a0: 3441 81be b9d9 a6bd cff2 06bf 35e0 31bf
000000b0: 7f4e fcbe 0c1c c1be f540 c23d d97c 5b3d
000000c0: 8e78 d9be d765 1e3e 89ad c33e 38ae 33bf
000000d0: 722c eebe a92f d9bc 61df 8cbe 5ddf efbd
000000e0: ee93 9b3e 8bc2 31bf a8ae 083f 1765 5f3e
000000f0: 3dad 20be c2ba b63e 33c2 b03d 58d8 f1be
00000100: f2ea 6ebe 246c 53bc 1bb3 4bbf 6030 21bf
00000110: a1dc 07be 3fcd 9f3e 384d 563d ad62 c13e
0.08452465 0.10434592 -0.19488983 -0.69053817 0.59696084 0.10157123 -0.7027223 0.25300345
0.47547778 -0.19884542 0.105393186 0.3412776 0.49922478 0.07592076 -0.170062 0.70537084
-0.30752903 -0.99337226 -0.3822372 -0.99486727 0.35710746 -0.013293494 -0.2622727 0.08499123
0.47895983 -0.11077871 0.6603633 -0.046872236 -0.0074048177 0.091845565 -0.32674056 -0.69277006
-0.40391544 0.4179006 -0.25469303 -0.102208234 0.5665275 0.82205904 0.31911024 0.051447354
-0.2524506 -0.08146996 -0.52714247 -0.6948274 -0.49278638 -0.3771671 0.09485046 0.05358586
-0.42474788 0.15468536 0.38218334 -0.7018771 -0.46518284 -0.026511984 -0.27514175 -0.11712525
0.303863 -0.69437474 0.53391504 0.21815906 -0.15691085 0.3568936 0.086307906 -0.4723537
-0.23331812 -0.012904201 -0.7957017 -0.6296444 -0.13267757 0.31211278 0.052319735 0.37770596

conv1.bias f4 [8]
00000000: 847d d23c 81ab fa3d 42cd e73d f6bf d2be
00000010: 2329 d3bd 9304 74be 6eda da3e 0ca5 4cbf
0.025694616 0.12239743 0.11318447 -0.4116208 -0.103105806 -0.2382987 0.42744774 -0.7993934

conv2.weight f4 [16, 8, 3, 3]
00000000: 9975 28bb c56b 07be 6bb9 a23b cf1e 11be
00000010: 477e 1e3d 801c b13e 61e5 193d 1471 eabd
00000020: 758f cc3e dc24 e5bd 3ce8 e83e 8344 7dbe
00000030: ce27 0abc 413f c13e d68e 843d cb0a a7be
00000040: f8a6 283f 9fea aebe 87dd 093d 6ff8 53bd
00000050: 7c35 373e f5f4 0bbe 9bd1 adbd 79cc 463d
00000060: 3811 a93b 7619 54be fc7c 1ebe 0c51 29bb
00000070: 2e70 f33d cb53 bc3e 9af0 f13d f530 92be
00000080: 7dd5 53bc 6141 d03d f87d b33c 41fb d0bd
00000090: 9197 04be 1487 d5bd c46e 103e c3e7 3ebe
000000a0: 39af 37bc 97ab b8be 36f6 7bbe ee4c 25ba
000000b0: 6cb7 9d3d 5c43 11bd 2386 8ebe 7e0f 413e
000000c0: c4de cc3d 6f80 eebe 261c b83d d577 003e
000000d0: 062c 83be 0d74 8f3e c036 883e 139a 083d
000000e0: 2163 c2be 5b43 dc3d 6e4e a3bd 7d39 093d
000000f0: 73dd 613e 23e7 30be 8c2c 9e3b 54d7 1dbe
00000100: 31ba 213d 1545 b43e 0cd4 2fbd 5be5 92be
00000110: dfad 393e a841 ab3c a32c 02bf 11e4 04bc
00000120: 9063 1fbf e018 adbd fb8b b93d f0e9 2abf
00000130: b9bb 86bf f1da 3dbe b963 9ebe 81a1 8fbe
00000140: ae8a 8d3d 6072 23be 64b8 b2bd acc5 23be
00000150: cbfa ad3e 6f86 56bd ba1b c63d 0f9f 163d
00000160: 1f00 27bd 144e a1bb af4a ce3e 2795 14be
00000170: 872a 85be c506 d63d e977 49be c3ab 2fbe
00000180: 55a8 063d 3944 243e c120 1a3e d443 cb3d
00000190: c506 b2bd d468 993c 2bce 703e d3bd 153d
000001a0: 9621 3c3e df82 423e 901b d0bc 4e54 fd3d
000001b0: 3218 94bc f625 9d3d f91b 2ebd 66bc ecbd
000001c0: 2b33 3d3e 7540 3e3e 3a65 dcbe c52c c5be
000001d0: d003 16bf abb1 503e e11f 443e f6f0 9abd
000001e0: 09fc a6bd 7ebc a0bd 8185 ca3d 09fc 9abd
000001f0: 9f85 6fbd 2ddd 303d fa0b 73bc 14a5 9e3e
00000200: 38a3 e0bd c38d 0abf 9c08 23bf 1994 55be
00000210: 5547 04bf a96b b6be c2a7 94bd e9b1 b23e
00000220: 5e64 24bd d477 5fbe dbe6 023e f20e 383e
00000230: 2bf3 e13d a642 07be 9a9d 2d3e 4924 a43e
00000240: 81b8 9abf f691 35bf c2e5 33be 4075 f13c
00000250: 0c97 6ebe d0d7 0ebe 39d4 8cbc 31c8 3f3c
00000260: 6f32 073e e2bd de3d 81df 1dbe 9a7f 56be
00000270: 38d9 c93d 4bba 02bf 9666 3ebe 867e 63be
00000280: 1c69 343e e27b 813e 0427 cabd dc05 97be
00000290: fa1e 9abe a529 343e 82ee 1a3c 57a0 babb
000002a0: c75d fe3d 7b6c 733e 5f89 cebd 3eca b43d
000002b0: d354 963d 5406 6d3d 2420 ab3e 8a32 073e
000002c0: 21ef 07bd 6af7 8b3c 7543 aa3d 705a 7f3d
000002d0: 1618 3c3e 735c 0b3e 2224 5cbd 7d7e f33d
000002e0: df22 12bd 250b 05bc 1526 283e 901e 083e
000002f0: 8db6 0c3e 491c a23d 85ad 7f3d ed44 2c3e
00000300: 2fb5 293d 88f2 8dbd 1b4d b93d 0f42 3cbe
00000310: 2ea9 e2bc 0658 063e df7e 2ebf efbd 22bf
00000320: 70ba 9abe c41f 3dbf e056 10bf 0c27 1ebe
00000330: 42a2 a1be f5d2 68be cc57 2bbc a5ca c6bc
00000340: 1668 e23c 039c d9bc bbf6 3dbb f3aa 693e
00000350: a6f6 853e 4402 13bd 2ffa 03bd d92f c23d
00000360: c642 5cbf e29e 513e 5def a33d 1fee 903d
00000370: 11f5 0b3e d6d8 3a3e 326a 713e ba89 663c
00000380: e0b9 90be 0f79 40bd 7593 aebe 71e2 aa3d
00000390: 145a 803e e150 84be 2f61 c7bb 5953 97be
000003a0: 2a8b 323e fbcb 0bbc 22c6 e83d a250 5dbe
000003b0: 9611 12be 21f0 0a3e 6dd4 e63e 5cc3 fe3d
000003c0: 2643 bfbd ebb8 5a3e e0e3 e23d c57b ae3e
000003d0: f2a6 40bd 86da 1ebe 5e5e cb3e 9741 d13e
000003e0: 4383 863d ad48 b9bd 588a a7be cc42 1d3d
000003f0: b060 5c3a 388e 003e 6f01 43bd d6e8 66be
-0.002570486 -0.13224705 0.004965951 -0.14171909 0.038694646 0.34592056 0.03757227 -0.11447349
0.399532 -0.11188671 0.4548968 -0.24733166 -0.008432342 0.3774357 0.06472556 -0.32625422
0.65879774 -0.34163377 0.03365853 -0.051750597 0.17891496 -0.13667662 -0.08487245 0.048534844
0.0051595233 -0.20712838 -0.15477365 -0.0025835661 0.11886631 0.3678268 0.11813469 -0.28552976
-0.012929318 0.1016872 0.021910653 -0.10204173 -0.12948443 -0.10426155 0.14104754 -0.18643098
-0.01121121 -0.36068413 -0.24605641 -0.0006305714 0.077010006 -0.03546463 -0.27836713 0.18853566
0.10003427 -0.46582362 0.08989744 0.12545712 -0.25619525 0.28018227 0.2660427 0.03335006
-0.37966254 0.107550345 -0.07973944 0.03350209 0.22057132 -0.17275672 0.0048270877 -0.15414172
0.039484207 0.35208955 -0.042926833 -0.2869061 0.18132733 0.02090533 -0.5084936 -0.008111016
-0.62261295 -0.0845201 0.09059902 -0.6676321 -1.0526038 -0.18540551 -0.30935457 -0.28052905
0.06911217 -0.159616 -0.08726576 -0.15993375 0.33980402 -0.0523743 0.09673257 0.036772784
-0.0407716 -0.0049226377 0.40291354 -0.14510022 -0.26009008 0.1045051 -0.19674648 -0.17155366
0.032875378 0.1604165 0.15051557 0.099250466 -0.086926974 0.018726744 0.23516147 0.036557984
0.18372187 0.18995236 -0.025403768 0.123695955 -0.018077943 0.07673256 -0.042507146 -0.11559372
0.1847655 0.18579276 -0.4304598 -0.3851072 -0.5859957 0.20380275 0.19152786 -0.07565491
-0.08153541 -0.07848452 0.09888745 -0.07567603 -0.05847704 0.04317968 -0.014834398 0.3098532
-0.109686315 -0.5412256 -0.6368501 -0.20857276 -0.51671344 -0.35629013 -0.0725856 0.3490136
-0.04013478 -0.21823055 0.12783377 0.17974451 0.11032709 -0.13209018 0.16954651 0.32058933
-1.2087556 -0.70925844 -0.17568114 0.029474854 -0.23299807 -0.13949513 -0.01719104 0.011705444
0.13202833 0.10876061 -0.15417291 -0.20947114 0.09855884 -0.5106551 -0.18593821 -0.22216234
0.17618221 0.25289828 -0.09870723 -0.29496658 -0.30101758 0.17594011 0.009456279 -0.0056953835
0.1242023 0.23771851 -0.10084795 0.08827637 0.07340398 0.057867363 0.3342296 0.13202873
-0.033187035 0.01708575 0.08313648 0.062342107 0.18368563 0.13609485 -0.053745396 0.1188936
-0.035677787 -0.008120333 0.16420777 0.13292909 0.13741513 0.07915551 0.06242134 0.16823168
0.041432556 -0.06931025 0.0904791 -0.18384574 -0.027668562 0.13119516 -0.6816234 -0.63571066
-0.30220366 -0.73876595 -0.5638256 -0.15444583 -0.31569105 -0.22736724 -0.010457944 -0.02426655
0.027637523 -0.02656365 -0.0028986174 0.22819118 0.2616474 -0.035890833 -0.032221016 0.094817825
-0.8603939 0.20470765 0.08004639 0.07076668 0.13667704 0.18246779 0.23575667 0.0140709225
-0.2826681 -0.04699045 -0.34096876 0.083439715 0.25068724 -0.25842956 -0.0060845832 -0.29555777
0.174359 -0.008532519 0.11365916 -0.2161279 -0.14264521 0.13568164 0.45083943 0.124396056
-0.093389794 0.21359603 0.1107862 0.34078804 -0.04703421 -0.15513048 0.39720434 0.40870354
0.06568005 -0.09047065 -0.32722735 0.03839378 0.00084067415 0.12554252 -0.04760879 -0.22549757

conv2.bias f4 [16]
00000000: 8cc9 35bd 9e3b eebd 9fef 94be eaf9 f3be
00000010: f046 63be cda5 92be 52b7 98be a0d2 30be
00000020: 9159 86be 6224 f8bd 55c8 a73d afd4 b1be
00000030: 3a94 b7be d372 48be 618c aebd 9d78 82be
-0.044381663 -0.11632465 -0.29089066 -0.47651607 -0.2219503 -0.2864212 -0.29827362 -0.17267847
-0.2624021 -0.121163145 0.08192507 -0.34732577 -0.35855275 -0.19575052 -0.08522869 -0.25482646

fc1.weight f4 [128, 784]
00000000: 3c93 213c 159a 9cbc 4864 1ebd 2f5a 0dbd
00000010: 246e 06bd 8a28 26bb 7d97 dfbc bb19 81b8
00000020: d50f 883b 5488 1fbd b611 c83c 7c96 fdbc
00000030: 9242 c3bc 521e 8bbc 5223 09bd dc3d 84bc
00000040: 45a2 ef3c 9526 cfbc 4bad 7a3b 1469 cdbc
00000050: 752f 00bd d0e2 28bc 7de8 b63b 9229 873a
00000060: 1b18 4b3c a54f 8dbc 8bcb 8a3c ae08 1dbd
00000070: b584 623c a415 943c 1e11 0cbd 933b 70bc
00000080: 5642 f1bc a3f9 8abc 7ad7 1bbd c65d a3bb
00000090: 1500 833c 714c 623c 3a6e febc 87e2 aabc
000000a0: 1662 04bd e1e0 be3c 934a e73c a493 cf3c
000000b0: 8cfc dcbc dac9 d6bc 924b 92bc 2e72 c63c
000000c0: e5b5 2cbc f07b cebc 68a6 8dbc e629 f13c
000000d0: e610 983c c0cd dfbc 1b8b c83b 4474 ef3b
000000e0: 0d1e 7bbc 067f c8bb 15ea 04bd 6604 523c
000000f0: e0d6 4b3c c29b 23bd 43b4 ef3c 6336 aebc
00000100: 0ec4 8abb f8bf 25bc c650 65bc eaf9 483c
00000110: 67f8 cebc 4f08 3c3c 62e2 dc3c e100 8b3c
00000120: 7903 d03b 2086 48bc c4d4 57bc f877 f4bc
00000130: 0eeb 00bd 93c1 00bd 4076 e3bc 4323 9abc
00000140: d6dc d33c b19a 0fbd fdc4 9abc a780 e3bc
00000150: 5385 dfbc c955 0cbd 2e1b c4bc c0b9 01bd
00000160: 9a1a 1abc 7dc1 e9bc 4e7e 28bd 64a9 2a3c
00000170: b29b 1bbd 4b7f 313c 668b 6f3a 013c 1d3b
00000180: 50e1 10bd 9959 103b c975 96bc 5693 16bd
00000190: f0ba d0bb dcfd 1ebc 30c7 cabc 8218 0dbd
000001a0: 8f8e 553c a862 903c e389 10bd 1704 9ebc
000001b0: 5238 6abc 9a9d a83c a45a d6bc 7bf6 a8bc
000001c0: 6fd5 a1bb 0824 c83c 2e43 c53c 96a4 d83c
000001d0: 0016 57ba 6b26 02bd 3e4a c03c 0f5b a4bc
000001e0: 8526 cf3a c509 87bc c2d4 d63c 588c 8e3c
000001f0: 8803 173c 7b10 1dbd 6f88 cd3b edbe 90bc
00000200: 1023 97bc c83c e1bb 8a0d ce3c 70ff 05bd
00000210: 8313 49bb 3eb9 fbbc 5b19 16bc e004 203c
00000220: 453e b63c 112d b53c 1ca2 bf3c 5d4c 893c
00000230: 0d69 03bc 8c1c 963c 670a ea3c 6dd0 dcbc
00000240: 576f 20bd d744 05bd 57b0 973a 7ae8 e2bc
00000250: 3e46 d33c 2dfb 35bc e979 bcbc 3c0e 27bd
00000260: 75b8 903c 88ce db3c ffce 53bc 8307 773c
00000270: cc78 ec3c 00e5 fd3a 85c8 21bd 03e6 3abc
00000280: 3b83 d63c dd55 ac3b 0815 24bc 96df d53c
00000290: 9e0f f03c 62be fb3c 4f2b 21bd 73ef 403c
000002a0: 3396 e3bc dba6 efbc 47c7 fa3c 90a6 fd3b
000002b0: fc96 cdbc bab3 f4bc 4ce9 db3c 7a0e 16bd
000002c0: 6781 82ba 9822 11bd 7537 bbb7 c3bb 8fbc
000002d0: d31d 19bd cfc4 9b3c c3b1 f53c 085e 58bb
000002e0: b815 483b 67e9 f0bc 3ad0 133b 6b66 7c3b
000002f0: c5d6 993c 592f 0fbc 03d7 393b 1b26 d83b
00000300: 8678 423c 874a 2a3b 6247 933c 8360 6b3b
00000310: a1b3 b6bc d065 2b3b 8bfb c73c 9b8f 1bbd
00000320: 758d 77bc 72f6 00bd 872f cabc 5f95 d63a
00000330: ffff 86bc 14dd e6bc c5ef 2f3c 6879 363a
00000340: af29 a4bc c842 2c3c 7269 00bd 5452 c93c
00000350: 0383 a23c 002e f6bc ed1c 12bd 5e71 58bc
00000360: dff8 a0bc 1d8f d83c 2b6f 26bd 9a4e 853b
00000370: 44de 16bc 1b2a de3c 2ab3 f03c 1cfa 933c
00000380: c3fc fcbc c40e d93a a8a3 a73c 8414 01bd
00000390: 1568 ab3b 6851 f5bc 44ce 0bbc 80ea 333b
000003a0: 0e98 48bc 2344 b93c c26e 36bb 62d6 863c
000003b0: 40b5 04bd 6890 1a3c 33ef e2bc cfa3 31bc
000003c0: d26e 3f3c 4ed1 f5bc dfb5 93bc 8b4e b13c
000003d0: 31e4 ffbc 9a53 803c 0653 ee3c c696 d6bb
000003e0: 806d 06bd 1027 7e3c d7f6 e0bc 1249 8fbb
000003f0: 6a2c 1ebd 3e28 543c 8899 09bd bf0d c4bc
0.009861764 -0.01911644 -0.038669854 -0.034509834 -0.032819882 -0.0025353753 -0.027293915 -6.155992e-05
0.004152278 -0.038948372 0.024422508 -0.030955546 -0.023835454 -0.016982231 -0.03348095 -0.016142778
0.02925218 -0.025286952 0.0038250263 -0.02507452 -0.03129526 -0.010307983 0.005581914 0.0010312072
0.012395884 -0.017249892 0.01694276 -0.038338356 0.013825585 0.018076725 -0.03419601 -0.014662641
-0.029450577 -0.01696474 -0.03804729 -0.004985544 0.01599125 0.01381217 -0.03105842 -0.02085997
-0.032320105 0.02330059 0.028233802 0.025338955 -0.026975892 -0.026219297 -0.0178583 0.024224367
-0.010541414 -0.025205582 -0.017291263 0.029438924 0.018562745 -0.027319789 0.0061200983 0.007307561
-0.015326989 -0.006118658 -0.0324498 0.0128184315 0.012441367 -0.039943464 0.02926076 -0.021266168
-0.0042347973 -0.01011657 -0.013996309 0.012266615 -0.025264932 0.01147659 0.026963416 0.016968193
0.00634807 -0.012239009 -0.013173286 -0.029842362 -0.031474166 -0.031434607 -0.027766347 -0.018815642
0.025862139 -0.035059635 -0.01889276 -0.027771307 -0.027285254 -0.0342615 -0.023938742 -0.031671286
-0.009405756 -0.028534645 -0.04113608 0.010416362 -0.03799028 0.010833572 0.00091378985 0.0023992064
-0.035371125 0.002202606 -0.018366711 -0.036761604 -0.006369941 -0.0097040795 -0.024753183 -0.0344472
0.013034477 0.017625168 -0.03528775 -0.01928906 -0.014295654 0.020582963 -0.026166268 -0.020625344
-0.0049387733 0.024431244 0.024079885 0.026445668 -0.00082048774 -0.03177492 0.023472901 -0.020062951
0.0015804326 -0.01648415 0.026224498 0.017400905 0.0092171505 -0.038345795 0.0062723677 -0.017669166
-0.018449336 -0.006873701 0.02515294 -0.032714307 -0.0030681796 -0.030727979 -0.009161319 0.009766787
0.02224649 0.022116216 0.02339273 0.016760046 -0.0080206515 0.01832416 0.028569413 -0.026954854
-0.039168682 -0.032536354 0.0011572939 -0.027698744 0.02579033 -0.011107248 -0.02300735 -0.04078506
0.017666081 0.02683188 -0.01292777 0.0150774745 0.028866194 0.0019370615 -0.03949787 -0.011407378
0.026185622 0.005259259 -0.01001478 0.02610759 0.029304322 0.03073043 -0.039347943 0.011775839
-0.027781582 -0.029254368 0.030612601 0.007740803 -0.025096409 -0.029870857 0.026844643 -0.0366349
-0.0009956778 -0.03543338 -2.2317961e-05 -0.017545586 -0.03738196 0.019014744 0.02999199 -0.0033015031
0.0030530524 -0.02940817 0.0022554533 0.0038513194 0.018779168 -0.008739316 0.0028356917 0.0065963394
0.011869555 0.0025984363 0.017978374 0.003591568 -0.02230245 0.0026153214 0.024411937 -0.03797875
-0.01510941 -0.03148503 -0.024680866 0.001637142 -0.01647949 -0.02818159 0.010738318 0.000696084
-0.020039408 0.010513969 -0.03135056 0.02457539 0.019837862 -0.030051231 -0.035672117 -0.013210623
-0.019649921 0.02643543 -0.04063336 0.004068208 -0.009208266 0.027119687 0.029382307 0.018063597
-0.030882245 0.0016560187 0.02046378 -0.031513706 0.0052309134 -0.029946044 -0.008533064 0.0027453005
-0.012243284 0.022615498 -0.0027837013 0.016459648 -0.032399416 0.009433843 -0.02770195 -0.010842278
0.011684136 -0.03000703 -0.018031059 0.021643898 -0.03123674 0.015664864 0.029092323 -0.0065487353
-0.03281927 0.015512243 -0.027461452 -0.0043727243 -0.038616575 0.012949048 -0.033593684 -0.023932336

fc1.bias f4 [128]
00000000: a584 cabc 4ae3 80bd b7fb b93c 02e3 b53d
00000010: 3b03 e7ba 93b6 693d 68f4 bbbd eb2a 30bd
00000020: bd28 623d 2e00 e73c e979 d33c dbbe 473d
00000030: 8353 c7bc 915d f4bc 54e3 dfbc ea83 dfbc
00000040: 045f cc3d 24fe 883d 69ef f8bc 7002 f6bc
00000050: 0183 d0bc 1240 04bd 6990 2e3b 91d0 2f3d
00000060: 4847 ec3c bc7c 3e3c a64f 4cbc 1a44 f5bc
00000070: b109 cbbc 2ca0 f9bc b564 e5bc aca9 2bbd
00000080: 214b 02bb 9df3 2f39 7098 08bd b467 f83a
00000090: 331a 3a3d 0408 a63d d09a e9ba d4ed 12bd
000000a0: 2f35 c2ba 3ebb 2abc 6e57 213d 6822 f0bb
000000b0: 7475 aeba d046 f5bc bdd1 0138 4612 ca3d
000000c0: 39e9 2e3c fa1a 9ebd 0330 b9bc 41bd 99bc
000000d0: 232c bd3b 171e efbc b861 413d 1a7f 84bd
000000e0: a696 273e 877f 583c cc58 2fbd c03e 61bd
000000f0: 433f aa3d a4fb 033d c5d2 bc3c 537d ab3d
00000100: 8ff9 55bd 08f5 253d 042c 263d ac8b 6dbb
00000110: 2aa2 9d3b 7e09 27bd 149a 0f3a a745 753c
00000120: 4e39 9c3c 6e2d 04bd 2f41 fabc 8f76 9d3c
00000130: 06ca 5a3d c362 bfbb 0b9b 9dbd f8ec bf3d
00000140: f465 d4bb 60df f33b a901 823c 6ca7 c93d
00000150: cd8d d4bd cf5b 253c 695d 563d 5a87 903c
00000160: f7b5 033d aac8 0fbd efa1 37bd b6f3 f13c
00000170: bc84 b4bc ad3d 0dbd 4ad1 ea3c e1c1 9bbc
00000180: 3cc6 e1bb d373 043b ebdc 9c3c 927e 0fbd
00000190: 063f 2abd b2df b53d 7018 2fbc d825 76bc
000001a0: 3682 423d 3097 02bc 080b 133c 855b 893c
000001b0: 5797 0f3d 019e 78bc 880e 8cbd b8a3 efbc
000001c0: e698 2fbd 2491 ca3b 2d33 c2bc ed81 be3c
000001d0: e3ab b13d 697d b7bd dc2a 1ebd 59e4 513c
000001e0: a592 aebb d388 ccbb a0bf 333d bc1e dbbc
000001f0: 4422 46bd 79a4 bfbd 5756 80bd 8469 47bb
-0.024721453 -0.06293352 0.022703035 0.08881189 -0.0017624864 0.057058882 -0.09177476 -0.04300968
0.055214632 0.028198328 0.025814967 0.048766 -0.024331814 -0.029829772 -0.027330078 -0.027284581
0.0997906 0.066890985 -0.030387597 -0.03003046 -0.025453093 -0.032287665 0.0026636368 0.042923514
0.028842583 0.011626419 -0.012470162 -0.0299397 -0.024784895 -0.030471884 -0.028002122 -0.04190986
-0.0019881206 0.00016780054 -0.0333485 0.0018951804 0.04543514 0.081069976 -0.0017822627 -0.03587134
-0.0014816875 -0.010420619 0.03939002 -0.0073283203 -0.001331015 -0.029940993 3.095133e-05 0.09866767
0.010675722 -0.07719989 -0.022605902 -0.018767001 0.005773084 -0.029189153 0.047212332 -0.06469555
0.16366062 0.013213999 -0.042809293 -0.054991484 0.083128475 0.032222405 0.023049721 0.08373513
-0.05223995 0.040516883 0.04056932 -0.003624658 0.004810591 -0.040780537 0.00054779765 0.01497022
0.019070294 -0.032269888 -0.03054866 0.019221572 0.05341532 -0.0058406307 -0.07695588 0.0937137
-0.0064818803 0.0074424 0.015869932 0.09846386 -0.10378609 0.01009269 0.052335177 0.017642666
0.032155957 -0.035103478 -0.044832166 0.029535156 -0.022035949 -0.034482647 0.02866425 -0.019013347
-0.0068900865 0.0020210638 0.01914831 -0.035032816 -0.04156401 0.08880557 -0.010686979 -0.015023671
0.04748746 -0.007970616 0.008974798 0.016767273 0.03505644 -0.01517439 -0.06838709 -0.029252872
-0.042870425 0.006181853 -0.023706043 0.023255313 0.08675363 -0.08959467 -0.038615093 0.01281079
-0.00532754 -0.0062418967 0.04388392 -0.026748054 -0.048372522 -0.093575425 -0.06266468 -0.0030427882

fc2.weight f4 [10, 128]
00000000: 5f65 a3bd 1380 94be 109c 023e a889 0f3e
00000010: 0840 87bd 9d2f 6d3e 13c0 d9bc 6453 f03d
00000020: 1f9d 62be 782b 88bd 1321 a53d 4f7a 0e3e
00000030: 9e6e 813e 47db c33c e286 4ebd 4394 77bd
00000040: 1c31 123e 0d50 f63d 3e7e a23d 2712 6ebe
00000050: c726 c53d 0ee0 25bd 19e7 a2be 6aae bf3d
00000060: 8703 9cbd 5dc9 36bd e2dd 653e a3bb 35bd
00000070: ee2c 91bd 5e5f 80bd 930f 693c e41c 95bd
00000080: c502 a33b 31ea babe 3eae 983d 4575 5fbe
00000090: 980b 65be 1874 60bd 3e1f bebe fd8c 44be
000000a0: eb3a 883b 544f a83d dcfc 9ebe 4044 1b3d
000000b0: bdb9 3fbd 2123 03bc 129a 94bd 394d f63d
000000c0: 8d1b 813e 2d0a bdbc 4c4c f1bd 5e66 823d
000000d0: 4bf2 9c3c e7d9 3fbd 389c bebe be9d e93d
000000e0: 6651 e7be 0489 17be 7762 aebd 7521 a0bd
000000f0: ff5f fa3d 27a1 b13d f06d 563e 6739 1b3e
00000100: 34a5 69bd 2733 d63d cf88 543e 4357 c2bc
00000110: 8e42 fa3d 0b97 843b 79d2 56be 24b3 a73d
00000120: 0c17 b9bd 0595 a3bd 8391 403d 7735 10bd
00000130: 4825 963c fc62 a53e 804e 513e 45a4 643e
00000140: c3fc e4bc 271a a3bd f216 6bbe c8a7 98bb
00000150: 009b ebbb 5b5a 78be 586d a2be 194e 7abd
00000160: c76a 64bb 6964 0abb 6136 803e ce81 993d
00000170: 7b22 803d 4ce7 4d3d e96e c7bd d9c6 3c3e
00000180: 136f 663e 7f3a 603c ccd3 f7bc 3edc 883e
00000190: 8192 013e 1641 84be 414c 733d ec5c 92be
000001a0: e538 95bd c15d d03d 0fab 8c3c 7f3f 9e3c
000001b0: 76ee 143e 8e38 9d3d 7ff6 2f3d 5095 afbd
000001c0: e2b1 863d 6e0d 333e ffca ddbe 009a 81bd
000001d0: 3f27 12bf a3a3 283e 053c 563d 098d 523c
000001e0: 68e3 7b3b 2fee 4cbd 758f 3d3e e27a a23b
000001f0: b6f4 143c 5d65 7bbe 7270 3d3c b875 f6bb
00000200: f9cc 97bd 3d7e 02be e944 1a3e 643e 0cbf
00000210: 70cf 52bd 4575 36bb 09ec a63d 6955 84bd
00000220: 0a76 e6be eafc 0cbd 409e 43bd 920e 8cbe
00000230: 2d9c 443e 24aa 75bd c8d3 61bd 0958 703d
00000240: 852d 96be d3b6 153e 5083 083d 11fa 193e
00000250: f992 b63e 4bce 123a 01a6 0dbe 3514 fabe
00000260: 644b 713d aa67 a3bd 7474 aa3e 2d3c 4fbd
00000270: 9067 c9bc f721 f43c b069 84bc e804 e7bc
00000280: ac05 80bc 19f7 a73e 9742 90bd c060 013c
00000290: 2893 72be 0d00 4abd ae91 cebd 2edc 163e
000002a0: 56fb 313d a176 993c bb63 0bbe 7677 f1bb
000002b0: 5c48 7cbc eb81 63bd 1c76 943d a7ef f4be
000002c0: e8eb 82bd a2ff aebe bb33 6e3e 2665 59bd
000002d0: f8f8 3bbd c579 573d 0f64 b6bc 8194 01be
000002e0: a511 9d3e 60df b33d 31c5 083e 9006 b53c
000002f0: 9c29 0dbd c752 453e 1444 08be 668e 983e
00000300: 50bf 2abd 6d96 463d 61eb d43d d8a8 d6bc
00000310: d850 ab3e f6c1 d83c c40f 01bf 375e cd3c
00000320: e252 ecba d056 1f3d 451d 063d 2746 85bc
00000330: edb8 89bc ce24 99bc b265 aa3d 8639 42be
00000340: 5bc9 82bd 0153 9f3d b317 e4be 958e d7be
00000350: 5d3d 823e 61b5 4ebe 552b acbe 2049 d83c
00000360: b2ab ddbe 3a93 753c 84e4 57be 14d2 9d3c
00000370: dd62 1d3d 752c 933e 73f6 ccbe 919e ddbc
00000380: cc35 c23d cdcd 81bb 0fa6 df3c 786d abbe
00000390: e19a e53d be06 d9bd e4a6 a73d 5f7c 073d
000003a0: cfb3 cfbe e671 4d3c dd48 46bd fc5f 293d
000003b0: 429d d5be 989e 623e a118 223d 4f61 61bd
000003c0: 6378 163d 3a6d 623d 3866 1f3e 59b9 783c
000003d0: 14e8 26be 17f5 ffbd 7c0a fb3c 7724 8bbd
000003e0: fb2c 663d 9a94 8ebc 23c7 9cbe 9092 d43d
000003f0: 0c60 8fbb 06fc 853e 6ab4 df3e ab49 0ebd
-0.079783194 -0.29003963 0.12754846 0.14017355 -0.0660401 0.23162694 -0.026580846 0.117346555
-0.2213025 -0.06648916 0.08062949 0.13913845 0.25279707 0.02390827 -0.050421603 -0.060444128
0.14276546 0.12026987 0.07934235 -0.23249112 0.09626537 -0.04049688 -0.3181694 0.09359439
-0.0761786 -0.04462563 0.22447923 -0.044368397 -0.07088648 -0.0626819 0.014224905 -0.07280901
0.0049746954 -0.365068 0.07455109 -0.21822079 -0.22367704 -0.054798216 -0.3713321 -0.19194408
0.004157414 0.08218256 -0.3105229 0.037906885 -0.046807993 -0.008003981 -0.07255949 0.12026448
0.25216332 -0.023076141 -0.117821306 0.06367181 0.019158503 -0.046838667 -0.3722856 0.1140704
-0.4517929 -0.14798361 -0.085148744 -0.078188814 0.12225341 0.086733155 0.20940375 0.15158616
-0.057042316 0.10458975 0.20755313 -0.02372325 0.122197255 0.004046326 -0.20978726 0.08188465
-0.09037599 -0.079874076 0.04701377 -0.035207238 0.018328324 0.32302082 0.20440102 0.22328289
-0.027952557 -0.079639725 -0.22957972 -0.004658673 -0.0071901083 -0.24253218 -0.31724048 -0.061109636
-0.0034853683 -0.0021116978 0.25041488 0.074954614 0.06256577 0.05026941 -0.09737951 0.1843523
0.22503309 0.013685822 -0.03025236 0.2673053 0.12653543 -0.25830907 0.059398893 -0.2858652
-0.072862424 0.10174132 0.01717141 0.019317387 0.1454409 0.076768026 0.042959686 -0.08573401
0.06576897 0.17485592 -0.43318936 -0.06328201 -0.57091135 0.16468672 0.052303333 0.012851008
0.0038435105 -0.050031837 0.18511756 0.0049584964 0.009091547 -0.24550386 0.011562454 -0.0075213574
-0.07412142 -0.12743469 0.1506535 -0.547827 -0.05146736 -0.0027840894 0.08150489 -0.06461603
-0.45011932 -0.034420885 -0.04775834 -0.27354866 0.19200201 -0.059976712 -0.05513361 0.058677707
-0.29331604 0.14620523 0.033328354 0.15036799 0.35659006 0.0005600198 -0.13832857 -0.48843542
0.05890979 -0.07978757 0.33291972 -0.050594497 -0.024585515 0.029801352 -0.016163677 -0.028200582
-0.015627705 0.32805708 -0.07043951 0.007896602 -0.23688948 -0.049316455 -0.1008638 0.1473243
0.043452583 0.018733324 -0.13612263 -0.007368977 -0.015398111 -0.05554382 0.0724909 -0.4783909
-0.06392652 -0.34179407 0.23261921 -0.05307498 -0.045891732 0.052606363 -0.022264509 -0.12654306
0.30677524 0.0878284 0.13356473 0.022097856 -0.03446351 0.19269858 -0.1330722 0.2979614
-0.041686356 0.0484833 0.103964575 -0.026203558 0.33460116 0.026459675 -0.5041468 0.02506934
-0.0018030072 0.03890115 0.032742757 -0.016268803 -0.016811812 -0.018694308 0.08320178 -0.18967256
-0.06386062 0.077795036 -0.4454933 -0.4210097 0.2543744 -0.20186378 -0.3362681 0.026402056
-0.43295056 0.014988715 -0.21083266 0.019265212 0.03842436 0.28744856 -0.40031776 -0.02705315
0.09482917 -0.003961301 0.027300863 -0.33481956 0.112111814 -0.10596989 0.08186129 0.033077594
-0.4056687 0.012539363 -0.04840933 0.041351303 -0.4172154 0.22130811 0.03957427 -0.05502444
0.036735903 0.055279948 0.15566337 0.015180909 -0.16299468 -0.12497919 0.030644648 -0.067940645
0.05619524 -0.017404843 -0.3062068 0.10379517 -0.0043754634 0.2616884 0.43692333 -0.034738224

fc2.bias f4 [10]
00000000: 6445 b7bb 2ad5 8ebd 5ffe 223c 634a ed3c
00000010: e69d 0abd bba9 cfbd 6773 043e 6bc4 2a3d
00000020: b0c8 543d 5ef5 9eba
-0.005592989 -0.069742516 0.009948342 0.028966134 -0.03384199 -0.101397954 0.12934648 0.041691225
0.051949203 -0.0012127568
