fashionMNIST_MLP_model.onnx (onnx, 64486 bytes, 4 tensors)

layers.1.weight f4 [20, 784]
00000000: 22d4 59bd 6225 91bd 9ffe 27bd 64f3 2cbd
00000010: b0f0 8cbc 647b 2abd 973b febc 967b 1cbd
00000020: e20d 05be 3c07 88bd ae9b 283e d1c6 4c3e
00000030: ab6f d7bd eb8f 67bd b5d9 c43c 6ac1 ae3c
00000040: 8136 9e3d 9d95 5c3e b0da efbc aa1c 2bbe
00000050: dc74 d3bd 055e a93b ca82 d1bc 5f5d 92ba
00000060: 9266 b7bc e00b 94bd 0667 03bd 129c 10bd
00000070: 24ed ddbc 386b 97bd dd83 93bd 1c3b 73bd
00000080: dae0 4cbd 6d57 42bc aea9 c4bc 29c2 1bbe
00000090: 7d0b 39bd 00a3 a63e 8598 6d3e eb04 1c3e
000000a0: f729 133b 24d3 22bd 3dc6 e63d d74a b0bd
000000b0: fca9 873d e8fc 893e 4a1b a93e a684 db3d
000000c0: b260 7cbe d6a0 42bd d654 143d 3f18 ce3c
000000d0: cbed 8c3c 3126 843c 07b6 5ebd f768 3cbd
000000e0: 3b47 18bc 5383 30bc d4b2 eebc f850 a7bc
000000f0: a99f babd d1c2 f5bd 2729 2abe 6b7f e8bd
00000100: b956 233d adc3 02be c2b5 35be 50b5 98bc
00000110: 9d7d 79be 32d3 99be 652d 68be 614c 8abe
00000120: 46d7 563d cd0a 293d 8141 c63c 414b 763d
00000130: 7ca8 c83c 6fe2 03be 1283 1fbe 70da b43c
00000140: 7753 c83d b743 1e3d 4e14 663b 9641 fdbc
00000150: 5e9b 60bd 7c58 733c eb05 bcbc 4ab5 03bd
00000160: d4b1 66bd 2690 f1bd 307e 7fbe db68 47bd
00000170: 25ce 04be 88a1 51be 7f27 c53c 9b5c 9c3e
00000180: 5486 7d3d b6d0 5fbe 7209 83bd 33ad e63c
00000190: 81e8 823e ef93 1f3e 25e8 f83c 522b 03be
000001a0: 7a03 30be 71e6 23be b9ef a1bd 269b 523c
000001b0: 0d11 e13d a2d6 d73d ca92 153d 038b bebc
000001c0: 25f0 a4bc 8cf6 8abc 987c 12bd ffd9 a8bd
000001d0: 1687 ecbd 453b 05be 5fce 75be 63cb 1b3c
000001e0: fcc0 a4bd 9bf2 38be eeb4 ef3d 5c14 933e
000001f0: 1c6d ab3d 853d e3bd 20cf e1bd 4eb5 bfbc
00000200: 644d 343e 4f61 813e 6ac9 093d 239c 8abd
00000210: 91b4 7cbd b63c 05be c3c0 edbd d4d0 803d
00000220: 5f80 a63d a9f1 a73d 2e9c 8c3d 9bf2 b9bc
00000230: 19f3 39bd c816 f1bc 7950 56bd b333 73bd
00000240: dede 2bbe fc7e 01be 9a61 fdbd 5e37 423d
00000250: e965 88bc 2513 433d 5fea 513e 71fe 8a3e
00000260: 6bd0 433e aff2 8c3d 54ab 95bc d2d8 833d
00000270: ac8c 853e c1af fd3d f868 bf3b c73c cdbd
00000280: fe3f 4cbd 44ab 2fbc fec2 b83c 4202 a83d
00000290: 1df2 003e a42a 103e 85e8 f93d 5280 42bd
000002a0: 6e4d 8bbd a551 69bc 7b55 cebc 3e88 c2bd
000002b0: 26e7 2bbe 3f6d 32be 8647 8fbd 6342 bbbd
000002c0: 74dd 42be f1d8 bb3d c208 063e f985 aa3c
000002d0: 0e1f 5e3e cec0 e63d 1f04 b8bd 71db a63d
000002e0: 1432 363e eeb1 78bd acce 6cbe 3d6b 26be
000002f0: bf22 05be dbd2 523d 16e1 9cbc 0cef ca3d
00000300: 54c7 c63d bdb4 603e a038 113e fd05 1d3c
00000310: fef3 373c 40ed 003c edf0 9cbd 3c09 cbbd
00000320: 7b29 13be 3d72 56be f80d 87bc 3491 53be
00000330: c821 dbbe 9b1a a23c 92cf a63d c28c 613d
00000340: 4d4d 073e 89f6 7f3d 5e56 84bd e565 663c
00000350: 5168 893d 847c 32be 226c 91be 19b7 f1be
00000360: 7651 36be 7c30 893d 2e1c bbbc 677d e7bc
00000370: 1bf5 bb3d 8885 683e cdf1 483e 28f3 693d
00000380: 4c80 c03b 6455 05bc 46c1 7ebd 7b82 f9bd
00000390: d614 3fbe 7154 2fbe a148 9bbd 15e3 b8be
000003a0: 9001 01bf 2bb1 1fbe 199f 433c 49a9 123e
000003b0: ae22 3f3d 3ccf 273e 9638 7f3d a975 113c
000003c0: 01bb a7bc dbaa 48be 41f1 24be 46bc bdbe
000003d0: 83a0 26be ec21 ddbd 6369 c1bb e29c 9fbc
000003e0: 2324 9e3d 6db6 0f3e 3f7a 393e 33fb 2cbc
000003f0: c69c b03b f02e b93c 00fe 6dbd bd55 97bd
-0.05318082 -0.07087208 -0.04101431 -0.042224303 -0.017204612 -0.04162158 -0.031034274 -0.0382038
-0.12993577 -0.06642005 0.16465637 0.19997717 -0.10519346 -0.056533735 0.024029592 0.021332461
0.077252395 0.21541448 -0.029279083 -0.16710153 -0.103250235 0.0051686787 -0.02557506 -0.0011166743
-0.022387777 -0.072288275 -0.032080673 -0.03530509 -0.027090617 -0.07393497 -0.07202885 -0.059382543
-0.050019123 -0.011861664 -0.02400669 -0.15210785 -0.04517697 0.32546234 0.23202713 0.15236251
0.0022455433 -0.03975214 0.1126828 -0.086080246 0.06624219 0.26950765 0.33028632 0.1071866
-0.24646261 -0.047516666 0.03621372 0.025158046 0.017203232 0.016131492 -0.054372814 -0.04599854
-0.009294326 -0.010773498 -0.029138006 -0.020424351 -0.09112484 -0.12000049 -0.16617261 -0.11352428
0.039877627 -0.12769957 -0.17745116 -0.018641144 -0.24364324 -0.30043942 -0.22673567 -0.27011397
0.052451394 0.041270066 0.024201157 0.06013036 0.024494402 -0.12879346 -0.15577343 0.022076815
0.09781545 0.038638797 0.0035107317 -0.030915063 -0.05483567 0.014852639 -0.02295204 -0.032155313
-0.056321934 -0.11795072 -0.2495048 -0.048683982 -0.12969263 -0.20471776 0.024066685 0.30539402
0.061895683 -0.2185696 -0.06398286 0.02815876 0.2556801 0.15583776 0.030384133 -0.12809494
-0.17188826 -0.16005875 -0.079070516 0.012854373 0.1098958 0.10538985 0.036516942 -0.023259645
-0.020134041 -0.016963266 -0.035763353 -0.082447045 -0.11549203 -0.13010891 -0.24004506 0.00950894
-0.08044621 -0.18061297 0.117044315 0.2872647 0.0837042 -0.11095718 -0.11025834 -0.023401882
0.17607647 0.25269553 0.03363935 -0.06768062 -0.06169564 -0.1301144 -0.11609032 0.06289831
0.081299536 0.0820039 0.068657264 -0.022698691 -0.04539785 -0.029429808 -0.05232284 -0.059375476
-0.16784236 -0.12646097 -0.12372132 0.047416084 -0.016650157 0.04762568 0.20499562 0.27147248
0.19122474 0.06882226 -0.018270172 0.064378396 0.26083887 0.12387038 0.0058413707 -0.10021358
-0.049865715 -0.010721985 0.022553917 0.08203556 0.12592359 0.14078766 0.12202553 -0.047485657
-0.06801878 -0.014240657 -0.025187245 -0.094986424 -0.16787395 -0.17424487 -0.06996064 -0.09143522
-0.1902979 0.09172238 0.13089278 0.020815836 0.21691534 0.11267243 -0.08985161 0.08147324
0.17792541 -0.060716562 -0.23125714 -0.16251846 -0.13001536 0.05147062 -0.019150298 0.09908876
0.097059876 0.21943946 0.14181757 0.009583947 0.011227606 0.007869065 -0.076631404 -0.09913871
-0.14371292 -0.20942016 -0.016486153 -0.2066086 -0.4279921 0.019788077 0.0814506 0.055065878
0.13213082 0.062490974 -0.06461786 0.0140623795 0.0670935 -0.17430311 -0.2840281 -0.47210005
-0.17804512 0.06698701 -0.022840586 -0.028258039 0.091776095 0.22707188 0.1962349 0.057116657
0.005874669 -0.0081380345 -0.06219604 -0.1218309 -0.18660292 -0.17122056 -0.07582212 -0.3611075
-0.5039301 -0.15594928 0.011939787 0.1432239 0.046663933 0.16387647 0.062309824 0.00887815
-0.020474913 -0.19596426 -0.16107656 -0.37057704 -0.16272168 -0.10797486 -0.0059024557 -0.019483987
0.07721736 0.14034434 0.1811304 -0.010557937 0.0053897826 0.02260539 -0.05810356 -0.073894

layers.1.bias f4 [20]
00000000: 0c6d 9a3d 8074 253d 518c 66bd 8f56 873d
00000010: a490 b93d 99f0 093d 7755 e8bd 0fc9 03bc
00000020: ed29 323d 1eed bbbc a893 033e 2513 9ebc
00000030: 98b9 cebc edd6 28bd 0aef d13d efe4 fc3c
00000040: fcd6 e4bc b833 edbc 4d11 2f3d 51bd 3e3d
0.0754033 0.040394306 -0.05628616 0.066083066 0.09060791 0.033676717 -0.11344426 -0.008043542
0.043497015 -0.022940215 0.12849295 -0.019296238 -0.025234982 -0.041220594 0.10250671 0.030870883
-0.027934544 -0.028955325 0.04274111 0.046567265

layers.3.weight f4 [10, 20]
00000000: 1c99 84be b2a3 a93e f532 b5be 638e c73e
00000010: d088 443e e8d7 b93e 9360 66be ce65 c7be
00000020: f6ee ebbe 7518 c0be f9e5 fbbe bee2 193e
00000030: 12e7 7a3e f732 82be b9af 5f3e 3068 f1be
00000040: f1c3 3fbd 41ef 42be 5b50 24be fc0b 423d
00000050: e311 d6bd 51cf 5fbd 4a5e 2bbe 592d ab3e
00000060: 1c63 16bf 2cd9 cdbd 73a7 cfbe ba8f 0c3f
00000070: 2822 d0be bf90 d73e 49da 9f3e f63f cebe
00000080: ac7a 0bbd 2a2a 73be 3939 53bd a16a c3be
00000090: d4ca ff3d 34b9 86bd fc14 28bf aefa 27bf
000000a0: 3be2 3bbe a745 a73e 4451 7d3e 5770 af3e
000000b0: ef3b 1dbd 5da3 5cbe c1c9 9fbe 627c 0cbf
000000c0: effc 0a3e 1fdd 86be 9f3a 793d 19a3 bcbe
000000d0: 8332 81bc 67f0 39bf ce74 d3be 60b5 753e
000000e0: 6e2b 5dbe e63b 3dbe 00dd 43be 9f04 673e
000000f0: 5eed 593e 5be0 33bf a717 5f3e 8501 c43d
00000100: cc9c 8cbd 4d82 12be 287c 2abf f3e9 eabd
00000110: 7f8e 3a3d 220f 8bbe d0b8 acbe 08eb 833e
00000120: 14ae 4f3d ed74 b2be 3107 a13d bae4 893e
00000130: 6e4d 3abe d804 bc3e f6ec cbbe 7d93 f0bd
00000140: a3ec a4bd ad5d 48be 9400 6ebe c09c b5bc
00000150: c466 813d ba06 c1be 5da4 ecbe c00d afbe
00000160: e5f6 1f3e 4b4b c53e d542 713e e61a ec3e
00000170: 1298 e3be cb2e 683e 24aa 8dbd 4349 8f3e
00000180: 0dc8 53bc 5b20 29bf 8602 163e 54b5 e9be
00000190: 2eae 143e c27c 8c3e 6c80 05be 370d 0abe
000001a0: 560b fcbe c7fd a0be 3b65 863e 4301 873e
000001b0: 8ce0 533e a029 943e 6838 c4be ceb1 97be
000001c0: 753c 8d3e e7c9 90be e09e 8ebe b280 703c
000001d0: 8e19 083e 569e ed3c adc1 943e c84c f63d
000001e0: aaaa 5ebf c855 b23e a6c9 2ebf 1686 b5bc
000001f0: 59b7 b93e ddce 403e 92a3 41be c0ba 37bf
00000200: 8ed8 df3e d106 1bbe 9fda c9be e7a4 0fbe
00000210: 0624 9cbe 0366 0dbf 008f c83e 9ee9 9c3e
00000220: 2ebb 3d3e 48c6 473e 64ae 2b3e 9efa 48bf
00000230: bad5 56be 2306 c1bd a96c 893e 4608 2dbe
00000240: e714 6b3e 28c1 b8bd 3a7a 9e3e 08a2 dd3d
00000250: 3fb1 2ebe dce5 08bf 5d90 19be 0511 423e
00000260: bfb4 7d3e ad64 de3e d901 1ebd d946 eebe
00000270: d14a 24bc b28d 6fbd 5c1d e4be 35f2 0c3e
00000280: 5adb 623e 542e c8bd 5b47 2fbf 0f1c 87be
00000290: c991 db3e f02d 573d 832d 37bf 5068 a13e
000002a0: cdc8 b43e 6918 4ebf aabd c93e bdea 093e
000002b0: fc77 b73d 618e f23b 3bdd 293e 52eb b3bc
000002c0: fbdc 41be 3247 93be ccb2 7f3e 5734 ae3a
000002d0: c509 513e 9e95 183e 9a2d e63e 4446 0bbf
000002e0: 91b0 f6bd 551a d4bd f51e 153d 3326 333e
000002f0: c146 c3be 5087 7fbe 44cd 92bd dbdb abbe
00000300: cc91 2fbf b803 eabe ce8d b93e 7782 0bbf
00000310: 984e b3bd 07e5 013e 9d29 d9bb 16a6 0f3e
-0.25898063 0.33132702 -0.3539044 0.3897582 0.19192815 0.36297536 -0.22497778 -0.38944858
-0.4608075 -0.3751866 -0.49198893 0.15027902 0.24502209 -0.25429508 0.21844377 -0.471498
-0.046817724 -0.1903658 -0.16046278 0.04737471 -0.1045263 -0.05464107 -0.16735187 0.33433035
-0.5874498 -0.10051188 -0.4055744 0.5490681 -0.4065106 0.4210262 0.31221226 -0.40283173
-0.034052536 -0.23746553 -0.051568244 -0.3816729 0.12489858 -0.065782934 -0.6565702 -0.6561688
-0.18348019 0.32670328 0.24738032 0.34265396 -0.038387235 -0.21546693 -0.31208614 -0.54877293
0.13573049 -0.26340577 0.06084692 -0.36843184 -0.015771156 -0.7263245 -0.41300052 0.2399497
-0.21598598 -0.1847988 -0.19127274 0.22560357 0.21281955 -0.70264214 0.21786366 0.09570602
-0.06865844 -0.14307518 -0.665957 -0.114704035 0.04554605 -0.27159983 -0.3373475 0.25765252
0.050703123 -0.34854832 0.078627 0.26932317 -0.181936 0.36722445 -0.39829224 -0.11746881
-0.08052947 -0.19566984 -0.23242408 -0.02216947 0.06318429 -0.37700444 -0.4621915 -0.34190178
0.15621527 0.38534006 0.2356065 0.46114272 -0.44451958 0.226741 -0.069172174 0.27985582
-0.012926114 -0.66064996 0.146494 -0.45646155 0.1451957 0.27438933 -0.1303727 -0.13481604
-0.492274 -0.31443617 0.26249108 0.2636815 0.20691127 0.28938007 -0.38324285 -0.29627842
0.27585188 -0.2827904 -0.27855587 0.014679121 0.13290998 0.029006165 0.29054013 0.120263636
-0.8697916 0.3483107 -0.6827644 -0.022158664 0.36272696 0.18828912 -0.18910053 -0.7176933
0.43719906 -0.15139319 -0.39424607 -0.14027749 -0.30496234 -0.5523378 0.391716 0.30646986
0.18528435 0.19509232 0.16765743 -0.7850741 -0.20979968 -0.094249986 0.26840714 -0.16897687
0.22957192 -0.09021217 0.30952626 0.10821921 -0.17059802 -0.5347574 -0.14996476 0.18951805
0.2477598 0.43436185 -0.03857598 -0.46538427 -0.010027603 -0.05848474 -0.4455365 0.1376427
0.22153988 -0.097744614 -0.68468255 -0.26388595 0.42884663 0.052534044 -0.7155382 0.31524897
0.3530945 -0.80505997 0.39402515 0.13468452 0.08958432 0.007402227 0.16588299 -0.021962795
-0.18931954 -0.28765255 0.2497055 0.0013290745 0.20413883 0.14900824 0.44956666 -0.5440409
-0.12045396 -0.10356585 0.036406476 0.1749504 -0.38139918 -0.24953961 -0.071680576 -0.33566174
-0.68581843 -0.45705962 0.36241 -0.5449595 -0.08755225 0.12685023 -0.006627275 0.140282

layers.3.bias f4 [10]
00000000: cb02 273e d9da 043e 5b13 16be a288 f13d
00000010: c58b 21bd d566 493a 944a ab3d 050c 263d
00000020: 53a7 813d e3ce 1fbe
0.16309659 0.12974109 -0.14655821 0.11793639 -0.039439935 0.00076828647 0.08363834 0.040538806
0.06330743 -0.15606265
