fashionMNIST_MLP_model.onnx (onnx, 64372 bytes, 4 tensors)

layers.1.weight f4 [20, 784]
00000000: 2b0d 69bb e0bb b6bc feaa 0dbd 1546 30bd
00000010: 2c66 e43c 07f9 2c3d 7c5a 2c3d 6c38 da3b
00000020: d25d 82bd 3b1e 8bbd 21b5 52be 4c92 89be
00000030: bc86 883e 461e 9e3e 4ffd 833e 5575 f93e
00000040: 4b42 32bd 7096 6dbe e210 e4bd 87da b9bd
00000050: 6904 cabc 114c 723b 7dfa 143c f044 173c
00000060: 2744 6ebd 2c6e 613a d612 3bbd a6fc 07bd
00000070: f62f 69bc 4381 8dbb 7b9a 67bd 6f7a 14bc
00000080: c606 403c 43d1 ac3d a257 1c3e 746e db3b
00000090: 442d 65bd 8a22 8abe 2aa6 28be 521a 8336
000000a0: 893e 6e3e 0bbc 223e 5b08 e13d d599 193e
000000b0: eb9e 1cbd db28 95be 1c3d a8be 0d34 f6bd
000000c0: 5ce4 ffbc 4502 3e3d 3ae0 9d3d e776 2f3d
000000d0: 766f 09bd ad0a 35bd 77f9 86bd 45ff 25bd
000000e0: 432a 53bd e5aa 7abd 485c aebc 5279 863b
000000f0: abc6 523d eb22 a03c d8e8 74bd 58fe e8bd
00000100: b31e 69bd 6bae 993b 92ac a43d 5ca6 e13d
00000110: 3a7b 3abd e44c d43d 81f2 453e 6e87 a93d
00000120: 8eff 11bc ab13 7fbc cc0b a0bd 7f6a 133d
00000130: 9c04 4fbe af9e e4bd 451d e0bd 9d1e 93bd
00000140: 7512 3f3c 9838 323d c0df 1fbc 2d1f d1bc
00000150: 823a 5dbd 2a31 bcbb 26eb e8bc 854d 093c
00000160: 52e0 58bd 8fae c4bd 3217 e4bd c709 273e
00000170: 8976 683e 0752 513d ae42 36be a594 ddbc
00000180: 4066 26bd 010f 153e 85a7 8a3e 8f30 bf3d
00000190: a0b1 5ebc 931d 83be 7b5d 14be 9d34 503e
000001a0: 538b 273e 0109 55bd 8baa 7dbe 8f07 4abe
000001b0: 55c7 11bd 6d43 903d 0513 a4bc 7091 88bd
000001c0: bd37 00bd 1530 a9bb 8edb 7c3b caea 3dbc
000001d0: 36ec f3bd 7c66 03bd 62b5 82bc c261 303d
000001e0: 7fba 8a3d fc23 1dbe 1925 debc 2acf fc3d
000001f0: 2758 053e af80 a83d 16f3 f03d 6572 c33d
00000200: 86a5 c73d 0c8b 58be 24cb a3be b06d 8d3c
00000210: 5179 073d 04f9 28bd 36ce 1dbe 498c 89be
00000220: 7ec9 5dbd cb11 0f3d e3b5 b03d b8b1 af3c
00000230: c909 77bc 0bd3 6a3c 1416 8b3c 0cbd 59bd
00000240: ef72 18be adce c8bd ba4d 99bd a646 86bc
00000250: 22ce 58bd 0e77 5b3c 3c52 a03c 9f95 da3d
00000260: 7dd4 ab3d 8676 ae3c 8534 6c3d d216 943d
00000270: 68a0 993c 1220 39be 2760 77be 9b27 70bd
00000280: bd3e 94bd 67ec 3ebd 7c4f f5bc 309f 8fbe
00000290: 27f0 84bd d828 bd3d 4e60 ef3d 5a65 2a3c
000002a0: 3c7a 87bc fb4b 5fbc 18e2 93bc 3b32 adbc
000002b0: 5455 a0bd e9a1 b5bd d649 c2bd 5e5a 7fbd
000002c0: d080 90bd 5885 013e b50c 363c d2f1 083e
000002d0: 5598 463e a26c b03d f8d3 613d dc30 04be
000002e0: c08f 58bc e830 98bd f1b5 93bd ee5c 39bd
000002f0: 1de2 e1bd a22d c13c c7c0 adbd b127 31be
00000300: ac6c ddbd 3dad ad3d d679 1f3e f6ec 063d
00000310: 4f22 66bd b7af 853b d6e0 8bbc 299b c7bc
00000320: c9ad a0bb 8324 b03c a28e e6bd 9489 65bd
00000330: 635e 3bbe acff 933d bcee 953d 0674 533e
00000340: d521 0b3c d4bd 8b3d e377 153e 501c 0d3b
00000350: 9eec e9bc b9d2 a63b da63 bb3c 7083 18be
00000360: 9fbd 04be 34cb a63c 8c13 b13d f54b 08bc
00000370: 5933 08bc 7cb1 1f3e 4a1e 143e 3ac3 f7bc
00000380: da4c 02bd 1f6b 4fbb ee13 debb 93c9 3bbd
00000390: 2b92 d23c e4f5 673d 5a7c 72bc ffe1 7fbc
000003a0: cb6f 1cbe f903 1cbd 0990 e5bb 35ff 3c3e
000003b0: a540 103a e633 cf3d 6543 083e eb35 92bd
000003c0: 666d 31bd fb7c febd 2d1e 5abe 925f ebbc
000003d0: c7b3 69bc c9a1 05bd 3a86 e53d fced 623d
000003e0: fd6a 983c dddc fa3d 7ed7 d13d 330b 8bbd
000003f0: d492 afbc b515 183d 2dcf 3d3c 63c2 0b3d
-0.0035560827 -0.022306383 -0.0345869 -0.043035585 0.02788075 0.04222968 0.04207848 0.006659558
-0.06365551 -0.067928754 -0.20576908 -0.26869428 0.26665294 0.30882472 0.25779197 0.4872233
-0.043520253 -0.23201919 -0.11136033 -0.09074884 -0.024660306 0.0036971609 0.009092924 0.009232745
-0.058170464 0.0008599486 -0.04567226 -0.03319993 -0.014232626 -0.0043183877 -0.05654381 -0.009062394
0.011720365 0.08438351 0.15267804 0.0066965166 -0.05595137 -0.26979476 -0.16469637 3.9071683e-06
0.23266043 0.15892045 0.10987922 0.15000089 -0.038237493 -0.29132733 -0.32859123 -0.12021647
-0.03123682 0.046388883 0.077087834 0.042838003 -0.033553563 -0.044199634 -0.065905504 -0.040526647
-0.051553976 -0.061198134 -0.021284238 0.004103818 0.051458996 0.0195479 -0.05979237 -0.11376637
-0.056914043 0.0046899817 0.08040728 0.11018059 -0.045527674 0.10366228 0.19330789 0.08277784
-0.008911027 -0.015568654 -0.0781475 0.035990234 -0.20216602 -0.11163079 -0.10943083 -0.071835734
0.011662115 0.043511003 -0.009757936 -0.025527561 -0.054010876 -0.0057431655 -0.02843244 0.0083802985
-0.052948304 -0.09603607 -0.11137237 0.16312324 0.22701468 0.051103618 -0.17798874 -0.027048418
-0.040624857 0.14556505 0.27080932 0.09335434 -0.013592154 -0.256085 -0.14488785 0.2033257
0.16361742 -0.05201054 -0.24772088 -0.19729446 -0.03559049 0.070441104 -0.0200286 -0.06668365
-0.031303156 -0.0051632025 0.0038583013 -0.011591623 -0.11910288 -0.03208016 -0.01595563 0.04306198
0.067738526 -0.15345758 -0.027117299 0.12344201 0.13021909 0.082276694 0.11765115 0.095433034
0.09748368 -0.21146792 -0.31990921 0.017264217 0.03307468 -0.041253105 -0.15410694 -0.26864842
-0.054147236 0.034929078 0.08628442 0.021447048 -0.015078017 0.014332543 0.016978301 -0.053158805
-0.14887594 -0.09805045 -0.07485528 -0.01639111 -0.05293096 0.013395084 0.019570462 0.10673069
0.08390138 0.02129675 0.057667274 0.07230915 0.018753245 -0.1807864 -0.24157773 -0.05863152
-0.07238529 -0.04661217 -0.029945128 -0.28051138 -0.06491118 0.09236306 0.116882905 0.010400141
-0.016537778 -0.013628955 -0.018052146 -0.021142116 -0.07828775 -0.088687725 -0.09486739 -0.06234204
-0.07055819 0.12648523 0.011111428 0.13373497 0.19394048 0.0861447 0.05513379 -0.12909263
-0.013217866 -0.07431203 -0.07212437 -0.04525464 -0.11029456 0.02358133 -0.08484035 -0.17300297
-0.10811743 0.08480308 0.1557382 0.032940827 -0.056185063 0.0040797847 -0.017074984 -0.024365978
-0.0049035293 0.021501785 -0.11257674 -0.056039408 -0.18297724 0.072265 0.073209256 0.20649728
0.008491953 0.06823316 0.14596514 0.0021531768 -0.02855521 0.005091038 0.022874761 -0.1489389
-0.1296296 0.020360567 0.086463064 -0.008318891 -0.0083130235 0.15595049 0.1446468 -0.030244458
-0.031811573 -0.0031649543 -0.006777278 -0.045846533 0.025704464 0.056630984 -0.014800156 -0.0156178465
-0.1527702 -0.038089726 -0.0070056957 0.18456729 0.0005502797 0.10117321 0.13306959 -0.0713919
-0.04331722 -0.12426182 -0.21300574 -0.028732095 -0.014264054 -0.032624993 0.11207242 0.05540274
0.018605703 0.122491576 0.1024618 -0.067892455 -0.021432318 0.037130076 0.011585039 0.03412093

layers.1.bias f4 [20]
00000000: a993 c03c 04da 9cbc 3de0 df3c cc43 393b
00000010: 6df4 603c a24b 9bbc 166a 1abd 7722 e0bd
00000020: 788d 2d3b b41d 3b3c edcd 2abd 6ff6 7a3c
00000030: 15a5 7e3d af57 903c 121d 9ebd 5896 9b3d
00000040: 60e2 6dbd 2448 61bd 4ff9 2bbd 6f7f 0a3e
0.02350791 -0.019146927 0.027328605 0.002826917 0.013730151 -0.018956963 -0.037698828 -0.10944074
0.0026482027 0.011420656 -0.041700292 0.015317543 0.062169153 0.017619936 -0.077203885 0.07597035
-0.058077216 -0.05500044 -0.041985806 0.13525175

layers.3.weight f4 [10, 20]
00000000: aaec d3bd 2a0f 9d3d 92d8 1fbd ed56 35be
00000010: 72e7 e7bd 47dd 923e 22ca 24bd 82c5 7bbe
00000020: 5c2d 99bd 777c c7bd c916 803e 6bf4 473e
00000030: 733e 00bd f9a8 b4be 3f09 da3c 1f33 903d
00000040: 74c0 93bd f3bc afbe abbb 6ebd 3261 68bc
00000050: 3836 fc3d 268b 28be 999c 9fbe 6c01 22be
00000060: f515 123f a357 c1bd 7031 d63e e22a 2d3d
00000070: 0cde 993e ba92 e03d 49bd 4cbe 737e 10bb
00000080: dc29 7ebe 9d36 03bf 480a 38be 617d 8abd
00000090: ae0c a3be 9af2 6a3d 3ae8 283e 9beb b63d
000000a0: 582b 9bbd f7fc 6b3e b061 e43d 4f54 f4bd
000000b0: eca0 b5bc 985f 6b3e 9f70 2ebe 4c17 8cbe
000000c0: 2037 913d 3a69 2a3d 6d9a a3be 5751 b5be
000000d0: 9de0 5abd 9aae a2be 8b52 f4bd aaa5 d3be
000000e0: a2c0 0b3e a7f6 593d e717 6dbc 665d e73d
000000f0: 923e 3e3e 7835 ccbe 9bb2 60be e960 ce3c
00000100: c722 53be c4cc 51be dd36 bfbd 7300 89be
00000110: 9255 c83c 3146 adbc 434b 9d3e 40bc 49be
00000120: 2a8b b33d 957d 27be 5830 51bc 60cd 403e
00000130: 9a45 15bb 6468 1d3e f97a 2d3e 8f90 e63d
00000140: caad 8e3e ed59 54bc 56f9 733d 1d82 cfbd
00000150: 5997 9e3d a073 2e3e f21b 6f3e 2143 86bd
00000160: 7da6 96be 9b2e 123e ad3f 553c 95c9 19bf
00000170: 9893 353c 36d3 e8be feef b53b eede 0dbd
00000180: 6115 25be 9e20 7e3e 9d51 90be 6dea 52bd
00000190: 1363 a0be f11e 5d3e f9f5 563e 694a febd
000001a0: 56c7 b73e ee26 bebe 075c 64be 4a6e 393e
000001b0: ec9c 06bf dc2d e139 3b01 81bd 70d8 6e3e
000001c0: 5ac6 97bd 6a0e 57bd dd20 b53e e35a 813e
000001d0: 7bbc b3bd 099e a2be 0197 713e 6a9f f3be
000001e0: c633 7b3e 7aed fa3a d560 063d 7c9d c0bd
000001f0: dde3 cbbe 9d64 723d 1fd1 b3be 268f f7be
00000200: e100 c7be 88d8 523e 3c30 8cbd eb15 813e
00000210: 4c53 413e 46a3 67be f4a1 ee3e 1cfd e0be
00000220: 8581 163e c6c9 24be d6d4 c9bc dcdd 5d3e
00000230: 807c ccbe 158d 30be 2a3f f0be 09fb eabd
00000240: de16 91be 1e38 71be 777d f73e aed3 683e
00000250: d699 78bf 46b7 973d 7586 07be 4d05 0fbf
00000260: 1816 1a3e d7fa 813e aa1d a43d 9675 24be
00000270: 1ac1 403e 1d0c 4fbe 32c5 03bd c429 78be
00000280: 514a 683e 7200 aabe a302 833e c162 893c
00000290: 8a1c 5b3e 79e8 d1bd 76d3 a3be 3497 d9be
000002a0: d22e 4cbd 172b a0bd f981 5bbe e8c9 afbe
000002b0: c5c8 b53e 4aa7 013f 65cf b0be 5e2b ac3e
000002c0: ad2e b0be efde f7be 8c02 06be 8ab1 4c3e
000002d0: cfa1 033e a326 813e 25f5 c3be e90e 363e
000002e0: 7d60 2abf 038f eabe 1710 fabe f93c a53e
000002f0: 4c06 0dbe d326 10be 67b0 0b3d ee47 e3be
00000300: 9c44 dcbe 0eab f63d b716 6c3e b674 1a3e
00000310: a745 73be 2c27 12bf 24a7 00bf 863d 083e
-0.103478745 0.07668908 -0.039024897 -0.17708941 -0.113234416 0.28684446 -0.04023183 -0.24587062
-0.07479355 -0.09740537 0.25017384 0.19526832 -0.031309556 -0.35285166 0.026615737 0.070410006
-0.07214442 -0.34323844 -0.058284443 -0.014183329 0.12315029 -0.16459331 -0.31174162 -0.15820855
0.57064754 -0.094405435 0.41834593 0.042277224 0.3005222 0.10965486 -0.19994082 -0.0022048026
-0.24820656 -0.5125521 -0.17972672 -0.067621954 -0.3184561 0.05736027 0.16494837 0.08931657
-0.075766265 0.23045717 0.11151445 -0.11930143 -0.02217146 0.22985685 -0.17035149 -0.27361524
0.070905924 0.041604258 -0.31953755 -0.3541362 -0.053436864 -0.31773835 -0.11929806 -0.4133733
0.13647702 0.05321374 -0.014471031 0.11297111 0.18578556 -0.39884543 -0.21943133 0.025192695
-0.20618735 -0.20488268 -0.09336636 -0.26758155 0.024454866 -0.021151634 0.30721483 -0.19700718
0.08766778 -0.163565 -0.012767874 0.18828344 -0.0022777081 0.15371853 0.16941442 0.11258041
0.27866966 -0.012960893 0.059563957 -0.10132239 0.07743711 0.17036295 0.23350504 -0.065557726
-0.29423895 0.14275591 0.01301567 -0.60073215 0.011082552 -0.4547364 0.005552291 -0.03463643
-0.16121437 0.2481713 -0.28187266 -0.051493097 -0.31325588 0.21593834 0.20992269 -0.12416536
0.3589427 -0.37139076 -0.2230073 0.18108478 -0.52583194 0.00042949512 -0.06299063 0.23324752
-0.074108794 -0.05250398 0.35376635 0.25264654 -0.08776184 -0.31761196 0.2359276 -0.4758256
0.24531469 0.001914426 0.03280719 -0.09405038 -0.39822283 0.059177984 -0.35120484 -0.483514
-0.38867858 0.20590413 -0.068451375 0.25212035 0.18879431 -0.22620878 0.46607935 -0.43943107
0.14697845 -0.16092595 -0.02463762 0.21666664 -0.39938736 -0.17241319 -0.4692319 -0.114736624
-0.2833776 -0.23556563 0.4833791 0.22737 -0.97109735 0.074080035 -0.13234885 -0.55867463
0.1504749 0.25386688 0.080134705 -0.1606048 0.18823662 -0.20219465 -0.032170482 -0.24234682
0.226846 -0.33203465 0.2558795 0.016770722 0.21397606 -0.10249419 -0.3199727 -0.4249817
-0.04984934 -0.07820719 -0.214363 -0.3433373 0.35504737 0.5064589 -0.3453323 0.33626837
-0.3441061 -0.48412272 -0.13086909 0.19989601 0.12854694 0.2522479 -0.38272968 0.17779125
-0.6655348 -0.45812234 -0.488404 0.3227308 -0.13771933 -0.1407731 0.034103777 -0.44390815
-0.43021095 0.12044345 0.2305554 0.15083584 -0.23757039 -0.5709102 -0.50255036 0.1330472

layers.3.bias f4 [10]
00000000: ceea 1a3e 4e1f 36bc 5db5 d23c f1c7 00be
00000010: d79f 9f3b 6c6f c33c 4aee c8bc 14a3 f33c
00000020: c643 6c3d 5ff9 65bd
0.15128633 -0.011115862 0.025721246 -0.12576272 0.0048713493 0.023856841 -0.024527688 0.029740848
0.05768182 -0.056146022
